…
==================================================================================================
Total params: 37,942,767
Trainable params: 37,936,745
Non-trainable params: 6,022
__________________________________________________________________________________________________

__________________________________________________________________________________________________
Layer (type)                    Output Shape         Param #     Connected to                     
==================================================================================================
input_2 (InputLayer)            (None, 320, 240, 3)  0                                            
__________________________________________________________________________________________________
conv2d_1 (Conv2D)               (None, 320, 240, 32) 2432        input_2[0][0]                    
__________________________________________________________________________________________________
input_1 (InputLayer)            (None, 8, 160, 120,  0                                            
__________________________________________________________________________________________________
batch_normalization_14 (BatchNo (None, 320, 240, 32) 128         conv2d_1[0][0]                   
__________________________________________________________________________________________________
model_1 (Model)                 (None, 8, 160, 120,  37942767    input_1[0][0]                    
__________________________________________________________________________________________________
leaky_re_lu_13 (LeakyReLU)      (None, 320, 240, 32) 0           batch_normalization_14[0][0]     
__________________________________________________________________________________________________
reshape_1 (Reshape)             (None, 160, 120, 24) 0           model_1[1][0]                    
__________________________________________________________________________________________________
conv2d_2 (Conv2D)               (None, 160, 120, 64) 32832       leaky_re_lu_13[0][0]             
__________________________________________________________________________________________________
conv2d_3 (Conv2D)               (None, 160, 120, 64) 24640       reshape_1[0][0]                  
__________________________________________________________________________________________________
batch_normalization_15 (BatchNo (None, 160, 120, 64) 256         conv2d_2[0][0]                   
__________________________________________________________________________________________________
batch_normalization_16 (BatchNo (None, 160, 120, 64) 256         conv2d_3[0][0]                   
__________________________________________________________________________________________________
leaky_re_lu_14 (LeakyReLU)      (None, 160, 120, 64) 0           batch_normalization_15[0][0]     
__________________________________________________________________________________________________
leaky_re_lu_15 (LeakyReLU)      (None, 160, 120, 64) 0           batch_normalization_16[0][0]     
__________________________________________________________________________________________________
concatenate_6 (Concatenate)     (None, 160, 120, 128 0           leaky_re_lu_14[0][0]             
                                                                 leaky_re_lu_15[0][0]             
__________________________________________________________________________________________________
conv2d_4 (Conv2D)               (None, 160, 120, 160 184480      concatenate_6[0][0]              
__________________________________________________________________________________________________
batch_normalization_17 (BatchNo (None, 160, 120, 160 640         conv2d_4[0][0]                   
__________________________________________________________________________________________________
leaky_re_lu_16 (LeakyReLU)      (None, 160, 120, 160 0           batch_normalization_17[0][0]     
__________________________________________________________________________________________________
conv2d_5 (Conv2D)               (None, 80, 60, 256)  368896      leaky_re_lu_16[0][0]             
__________________________________________________________________________________________________
batch_normalization_18 (BatchNo (None, 80, 60, 256)  1024        conv2d_5[0][0]                   
__________________________________________________________________________________________________
leaky_re_lu_17 (LeakyReLU)      (None, 80, 60, 256)  0           batch_normalization_18[0][0]     
__________________________________________________________________________________________________
conv2d_6 (Conv2D)               (None, 80, 60, 512)  1180160     leaky_re_lu_17[0][0]             
__________________________________________________________________________________________________
batch_normalization_19 (BatchNo (None, 80, 60, 512)  2048        conv2d_6[0][0]                   
__________________________________________________________________________________________________
leaky_re_lu_18 (LeakyReLU)      (None, 80, 60, 512)  0           batch_normalization_19[0][0]     
__________________________________________________________________________________________________
conv2d_7 (Conv2D)               (None, 40, 30, 512)  2359808     leaky_re_lu_18[0][0]             
__________________________________________________________________________________________________
batch_normalization_20 (BatchNo (None, 40, 30, 512)  2048        conv2d_7[0][0]                   
__________________________________________________________________________________________________
leaky_re_lu_19 (LeakyReLU)      (None, 40, 30, 512)  0           batch_normalization_20[0][0]     
__________________________________________________________________________________________________
conv2d_8 (Conv2D)               (None, 40, 30, 512)  2359808     leaky_re_lu_19[0][0]             
__________________________________________________________________________________________________
batch_normalization_21 (BatchNo (None, 40, 30, 512)  2048        conv2d_8[0][0]                   
__________________________________________________________________________________________________
leaky_re_lu_20 (LeakyReLU)      (None, 40, 30, 512)  0           batch_normalization_21[0][0]     
__________________________________________________________________________________________________
conv2d_9 (Conv2D)               (None, 40, 30, 512)  2359808     leaky_re_lu_20[0][0]             
__________________________________________________________________________________________________
batch_normalization_22 (BatchNo (None, 40, 30, 512)  2048        conv2d_9[0][0]                   
__________________________________________________________________________________________________
leaky_re_lu_21 (LeakyReLU)      (None, 40, 30, 512)  0           batch_normalization_22[0][0]     
__________________________________________________________________________________________________
conv2d_10 (Conv2D)              (None, 40, 30, 512)  2359808     leaky_re_lu_21[0][0]             
__________________________________________________________________________________________________
batch_normalization_23 (BatchNo (None, 40, 30, 512)  2048        conv2d_10[0][0]                  
__________________________________________________________________________________________________
leaky_re_lu_22 (LeakyReLU)      (None, 40, 30, 512)  0           batch_normalization_23[0][0]     
__________________________________________________________________________________________________
conv2d_11 (Conv2D)              (None, 40, 30, 512)  2359808     leaky_re_lu_22[0][0]             
__________________________________________________________________________________________________
batch_normalization_24 (BatchNo (None, 40, 30, 512)  2048        conv2d_11[0][0]                  
__________________________________________________________________________________________________
leaky_re_lu_23 (LeakyReLU)      (None, 40, 30, 512)  0           batch_normalization_24[0][0]     
__________________________________________________________________________________________________
concatenate_7 (Concatenate)     (None, 40, 30, 1024) 0           leaky_re_lu_23[0][0]             
                                                                 leaky_re_lu_19[0][0]             
__________________________________________________________________________________________________
up_sampling2d_1 (UpSampling2D)  (None, 80, 60, 1024) 0           concatenate_7[0][0]              
__________________________________________________________________________________________________
conv2d_12 (Conv2D)              (None, 80, 60, 512)  8389120     up_sampling2d_1[0][0]            
__________________________________________________________________________________________________
batch_normalization_25 (BatchNo (None, 80, 60, 512)  2048        conv2d_12[0][0]                  
__________________________________________________________________________________________________
leaky_re_lu_24 (LeakyReLU)      (None, 80, 60, 512)  0           batch_normalization_25[0][0]     
__________________________________________________________________________________________________
concatenate_8 (Concatenate)     (None, 80, 60, 1024) 0           leaky_re_lu_24[0][0]             
                                                                 leaky_re_lu_18[0][0]             
__________________________________________________________________________________________________
conv2d_13 (Conv2D)              (None, 80, 60, 432)  3981744     concatenate_8[0][0]              
__________________________________________________________________________________________________
batch_normalization_26 (BatchNo (None, 80, 60, 432)  1728        conv2d_13[0][0]                  
__________________________________________________________________________________________________
leaky_re_lu_25 (LeakyReLU)      (None, 80, 60, 432)  0           batch_normalization_26[0][0]     
__________________________________________________________________________________________________
concatenate_9 (Concatenate)     (None, 80, 60, 688)  0           leaky_re_lu_25[0][0]             
                                                                 leaky_re_lu_17[0][0]             
__________________________________________________________________________________________________
up_sampling2d_2 (UpSampling2D)  (None, 160, 120, 688 0           concatenate_9[0][0]              
__________________________________________________________________________________________________
…
__________________________________________________________________________________________________
leaky_re_lu_28 (LeakyReLU)      (None, 320, 240, 131 0           batch_normalization_29[0][0]     
__________________________________________________________________________________________________
concatenate_12 (Concatenate)    (None, 320, 240, 163 0           leaky_re_lu_28[0][0]             
                                                                 leaky_re_lu_13[0][0]             
__________________________________________________________________________________________________
conv2d_17 (Conv2D)              (None, 320, 240, 74) 108632      concatenate_12[0][0]             
__________________________________________________________________________________________________
batch_normalization_30 (BatchNo (None, 320, 240, 74) 296         conv2d_17[0][0]                  
__________________________________________________________________________________________________
leaky_re_lu_29 (LeakyReLU)      (None, 320, 240, 74) 0           batch_normalization_30[0][0]     
__________________________________________________________________________________________________
conv2d_18 (Conv2D)              (None, 320, 240, 3)  2001        leaky_re_lu_29[0][0]             
__________________________________________________________________________________________________
batch_normalization_31 (BatchNo (None, 320, 240, 3)  12          conv2d_18[0][0]                  
__________________________________________________________________________________________________
activation_2 (Activation)       (None, 320, 240, 3)  0           batch_normalization_31[0][0]     
==================================================================================================
Total params: 69,441,626
Trainable params: 69,424,870
Non-trainable params: 16,756
__________________________________________________________________________________________________
__________________________________________________________________________________________________
Layer (type)                    Output Shape         Param #     Connected to                     
==================================================================================================
input_1 (InputLayer)            (None, 8, 160, 120,  0                                            
__________________________________________________________________________________________________
input_2 (InputLayer)            (None, 320, 240, 3)  0                                            
__________________________________________________________________________________________________
model_1 (Model)                 (None, 8, 160, 120,  37942767    input_1[0][0]                    
__________________________________________________________________________________________________
model_2 (Model)                 (None, 320, 240, 3)  69441626    input_2[0][0]                    
                                                                 input_1[0][0]                    
==================================================================================================
Total params: 69,441,626
Trainable params: 69,424,870
Non-trainable params: 16,756
__________________________________________________________________________________________________
